mnist.pth (torch, 902331 bytes, 8 tensors)

conv1.weight f4 [32, 1, 3, 3]
000000 d6 f4 8e 3e eb ad 8c 3e de aa 1d 3e 6c 7d 95 3e
       0.2792117 0.2747644 0.15397212 0.29197252
000010 d6 e0 cd bd 6a 00 03 3e ec 24 15 3e 4b 79 8a 3e
       -0.1005265 0.12793127 0.14564866 0.27045664
000020 43 19 07 bc ce 0f 10 bf 69 c3 53 be e1 66 ab 3e
       -0.008245769 -0.56274116 -0.20680012 0.33476928
000030 88 4f b8 be 93 f2 ce 3e 12 ec d9 3e 2a 6b 5f be
       -0.35998178 0.40419444 0.4256292 -0.21818224
000040 88 49 22 3d a8 de a1 3b 72 19 72 3d 88 1a 4e 3d
       0.039620906 0.004939873 0.059106298 0.05031827
000050 29 b2 cb be a5 e4 81 be 58 38 f8 bd 82 6b a8 be
       -0.39784363 -0.25369754 -0.12120122 -0.32894522
000060 45 f6 bf bc ba 1e 86 3e 54 da 87 3e a5 a0 80 bc
       -0.02343286 0.26195318 0.2653376 -0.015701601
000070 3d 70 22 3e db 18 9a 3e 2b 2b b7 be 9d 99 f3 be
       0.15863128 0.30097088 -0.35775122 -0.47578135
000080 f7 97 da be a4 c7 b4 3e c1 8f a6 3b c3 d1 7c 3e
       -0.42694065 0.35308564 0.005083055 0.24689393
000090 4c 62 cc 3e 1f 9f bb 3e 77 0d 8b 3e 5c 10 2e bd
       0.39918745 0.36644837 0.2715871 -0.04249607
0000a0 4e 8b 0c 3d 13 b4 2e 3e a9 b2 8f be 4f 4c 04 bf
       0.03431254 0.1706088 -0.28065994 -0.5167894
0000b0 a6 68 a6 be 05 fa fa 3c 82 c2 14 3e e5 9f 1c be
       -0.32501715 0.030636797 0.14527324 -0.1529537
0000c0 9b 78 8c 3d b2 a0 9d 3e 4a fb a3 be 19 fa bb be
       0.06858941 0.30786663 -0.32027656 -0.36714247
0000d0 1e e3 55 3e 6e b4 b1 3e 4e 54 b2 3c 38 b1 d5 3d
       0.2088742 0.3470797 0.021768715 0.104341924
0000e0 0b ac 93 be 69 a3 1a 3f e6 76 c3 bd e1 b7 14 bf
       -0.28842196 0.60405594 -0.095441625 -0.58093077
0000f0 66 89 d1 3e 87 50 bd 3d fa f6 da be ea a0 bc bd
       0.4092514 0.09243875 -0.42766553 -0.092103794
000100 26 f7 2f 3d a5 59 80 be c7 b0 97 bd 7d 28 a7 be
       0.04296031 -0.25068393 -0.074067645 -0.32648078
000110 d5 5c bc bd 64 24 62 be d9 a1 86 be 7c a9 41 bd
       -0.09197394 -0.22084194 -0.26295355 -0.047280774
000120 8e a2 c7 3e 2e 13 23 3e 0b c4 34 3e 7d b6 dd bd
       0.38991207 0.15925285 0.1765291 -0.108258225
000130 51 1d 2a 3e 70 9e 0e 3e 39 75 ec be da a3 2f be
       0.16612746 0.13927627 -0.46183184 -0.17152348
000140 7d 4e 55 3e 0c c4 60 3e a7 b5 14 bf dc 4a f2 bd
       0.20830722 0.21949786 -0.5808968 -0.118306845
000150 12 29 5a be 67 f0 d8 be a2 6b d0 3e 28 52 05 bf
       -0.2130473 -0.42370912 0.40707117 -0.52078485
000160 1d 63 83 3d a7 bb 71 3e 7e 42 d4 be f9 51 57 3d
       0.06415389 0.2360674 -0.4145698 0.05256841
000170 3f 24 aa 3e 1d 56 4f 3e bd 41 ae 3e b7 32 c9 3e
       0.3323078 0.20247693 0.3403453 0.39296505
000180 22 f7 23 3e cb 3c 91 3e 32 e6 d1 be f0 2c 93 3e
       0.16012242 0.28366694 -0.40995938 0.28745222
000190 44 a1 83 3e 9a 24 cb bc 89 83 f5 3d 29 3d 3c 3c
       0.25708973 -0.024797726 0.11987979 0.011489191
0001a0 6f df 92 3e 80 07 24 be 84 f4 ac 3e 21 cb 9c bd
       0.2868609 -0.16018486 0.337803 -0.07655931
0001b0 fb e3 eb 3d f8 55 99 3e b4 6d c3 bd d8 a2 07 be
       0.11518093 0.299484 -0.095424086 -0.13245714
0001c0 a3 65 4a 3e 68 25 db 3e 98 97 b4 be cf 3d c3 be
       0.19765334 0.42801976 -0.35271907 -0.38133094
0001d0 d7 04 0c be db c6 be 3e a2 ef ef 3e 8a 63 c7 3e
       -0.13673721 0.3726109 0.46862513 0.3894313
0001e0 0b 7f 0a be 45 78 c4 bc ca 60 a9 3d c5 a4 ee be
       -0.13525026 -0.02398313 0.08270414 -0.46610084
0001f0 51 34 e9 be d7 72 79 be 20 7a 96 bd 72 88 06 3d
       -0.45547727 -0.24360214 -0.07347512 0.03284497
000200 3b cf 84 be 07 84 aa 3e d2 0b b8 3e 08 c4 aa be
       -0.25939354 0.33303854 0.35946518 -0.33352685
000210 2b 82 51 bc 40 59 39 be ca 62 b2 3e d9 fb 9c 3e
       -0.012787382 -0.18100452 0.34840995 0.30660895
000220 41 61 09 3e 72 99 a5 3e 7c 14 84 be 88 24 96 3e
       0.13416006 0.32343632 -0.25796878 0.29324746
000230 59 d0 03 3e b4 2d 69 be 36 6e 84 3e b3 db b0 3d
       0.12872447 -0.2277134 0.25865334 0.08635654
000240 3e bc 10 3d bd a3 ab 3e 8e 35 8f be 18 4c 3a 3e
       0.03533577 0.3352336 -0.27970546 0.1819309
000250 5a 5f 20 3e 94 a8 7f be 37 01 9a 3e 6d 5e 34 be
       0.15661374 -0.24966651 0.30079052 -0.17614146
000260 45 1d 80 be 05 1a 0a bf f1 20 52 3e 82 8e b5 bc
       -0.2502233 -0.5394595 0.20520379 -0.02216268
000270 c2 a7 bb be 0e 68 d7 bd 99 6c b8 3e 32 51 48 3e
       -0.36651427 -0.10517894 0.36020353 0.19562224
000280 98 5b 87 3e 64 e0 96 3b 10 03 c5 3d a2 b8 88 3e
       0.26437068 0.004604386 0.09619725 0.26703364
000290 60 12 a3 3e f1 b5 18 be 6d 33 36 3e b5 b1 c5 3e
       0.31849957 -0.14913155 0.17793055 0.38612142
0002a0 20 0c e6 be 42 a4 a6 3e ce bf 2f 3e 26 54 38 bd
       -0.44931126 0.32547194 0.17163011 -0.045002125
0002b0 3b 2a 37 3c 3b ba 5a 3e 27 56 b7 3d ae 4f 84 bc
       0.011179502 0.21360104 0.08951979 -0.016151275
0002c0 f3 9e b9 3e b5 03 98 bd 5e 6b eb 3c 11 8a 14 bf
       0.3625408 -0.07422582 0.02873772 -0.5802317
0002d0 48 8e 4b 3e 14 51 53 bd f3 3a e5 be 3b d5 b9 bd
       0.19878495 -0.051590994 -0.44771537 -0.090738736
0002e0 ba 2e 36 be 3a 33 60 be 7d 45 c1 bd d7 8c f0 3e
       -0.17791262 -0.21894541 -0.09437082 0.46982452
0002f0 18 ce df 3e 20 05 53 3e b9 67 34 3f 83 9f c7 3c
       0.43711925 0.20607424 0.7047077 0.024368053
000300 54 e1 23 3f 6f a6 85 bd 92 90 c6 be 52 d1 eb bd
       0.640157 -0.06525885 -0.38782173 -0.11514534
000310 4c c6 18 bf 31 bf c8 be 93 af 62 be 8d 3c c3 be
       -0.59677577 -0.39208367 -0.22137289 -0.38132134
000320 a4 43 96 be 33 e5 c6 3e e1 39 69 bd 5a 1c 34 3e
       -0.2934848 0.3884674 -0.056939963 0.1758894
000330 75 a8 8e 3d 1b 39 b6 3e d7 71 0d bc 1d 04 8c be
       0.069657244 0.35590443 -0.008633099 -0.27346888
000340 08 a2 34 bd 35 d0 ff bb 07 03 69 3e 5c 15 84 bd
       -0.044099838 -0.0078068026 0.22755061 -0.064493865
000350 62 00 a0 3e 8d 1d 2a 3e e2 51 b7 be 2b 42 90 3c
       0.31250292 0.16612835 -0.3580466 0.017609676
000360 db bd f0 3d 5b 9d 52 bc 62 0b 8f 3c 6f e7 a9 3e
       0.11754962 -0.012854899 0.017461482 0.33184382
000370 4b a3 6d 3d 77 57 03 3e 7e e3 9e 3e fa 40 5e 3e
       0.058017056 0.12826334 0.31032938 0.21704474
000380 a2 5b 8e 3e 8f 0b 8b 3e 06 93 9e 3e 7b 4e 85 be
       0.27804285 0.27157256 0.30971545 -0.26036438
000390 6c 5b 9d 3d b5 8f a3 bd 63 58 61 be 40 4c a4 be
       0.07683453 -0.07986394 -0.22006373 -0.32089424
0003a0 fa 1f 18 3d 91 57 51 bc af 2b bc bd 33 51 a8 3e
       0.03713987 -0.012777225 -0.091880195 0.3287445
0003b0 c9 f8 99 3e 43 c8 72 3e 61 21 c8 3e a8 70 10 3e
       0.3007262 0.23709206 0.39087966 0.14105475
0003c0 7f 7e a3 be d2 79 54 3d bf 9d aa be c2 59 8c 3d
       -0.31932446 0.05187399 -0.33323476 0.068530574
0003d0 7f a2 cf 3e d5 ac c6 3e 93 60 f3 be a6 75 d4 be
       0.40553662 0.38803735 -0.47534618 -0.4149601
0003e0 21 c1 8e 3e 3c 12 1d 3d 5d d3 98 be 91 60 0b be
       0.2788172 0.038347468 -0.29848757 -0.13611056
0003f0 4e 1b a6 be 70 77 60 3e 26 17 49 3e 93 3f 2b 3e
       -0.32442707 0.21920562 0.19637737 0.1672347

conv1.bias f4 [32]
000000 75 71 53 be eb d8 a7 3b 6f c7 5e 3e 40 44 4e 3d
       -0.20648749 0.005122294 0.21755765 0.050358057
000010 50 e2 ca 37 6e 1b e7 bd 89 34 06 3d e9 ee 7a 3e
       2.4185661e-05 -0.11284529 0.032764945 0.245052
000020 b5 6e 66 be 3a 6d 82 3d 5f 75 a1 be d4 c6 be bd
       -0.22503169 0.063684896 -0.3153486 -0.09315267
000030 6b a6 11 3d 8c 05 60 3c 36 e0 a2 bb cf 8c 84 be
       0.0355591 0.0136731975 -0.0049705757 -0.25888678
000040 23 c0 1d be 13 e8 a2 3d 7d ea bb bd 0b f6 8d bc
       -0.15405326 0.07954421 -0.091755845 -0.017329236
000050 b4 12 18 bc d3 e3 1c bb f2 49 23 3c c2 fd d3 3b
       -0.009281803 -0.0023939505 0.00996636 0.0064694593
000060 44 4b 27 be ad 1e 81 3c 3c 55 f2 bc 32 16 85 3b
       -0.16337305 0.015761698 -0.029581659 0.004061484
000070 c4 29 92 be 37 fa a1 3e a6 3b d1 bd b5 07 98 bb
       -0.2854749 0.3163621 -0.10216455 -0.0046395906

conv2.weight f4 [64, 32, 3, 3]
000000 a0 3d 24 bd e5 a0 78 bb fc 95 2a bd a8 24 72 bd
       -0.040097833 -0.0037937697 -0.041646942 -0.05911699
000010 c1 89 1b 3d 56 21 3f 3c 22 22 41 3c 21 d7 1a 3d
       0.03797317 0.011665663 0.011787923 0.03780282
000020 e0 ae 47 bd dd d8 89 bd f9 c1 26 bb eb de 1a bc
       -0.04875076 -0.067308165 -0.0025445207 -0.009452562
000030 49 99 25 3d 89 8d 05 3d 60 88 a2 3c f1 88 40 bd
       0.040429387 0.03260568 0.01984042 -0.047005598
000040 da 1d 50 3d 43 b2 58 bc e4 4a 35 bd cb 7d 8d bd
       0.05080972 -0.013226095 -0.044260874 -0.06908759
000050 4e e1 99 bc dc 8c 36 3d 18 3d 1e bc 7f f3 2e bd
       -0.018784191 0.044567928 -0.009658121 -0.042712685
000060 04 25 8e bc ec 3a b8 3b e9 05 b5 3c 8b 67 48 bb
       -0.017351635 0.0056222584 0.022097545 -0.0030579295
000070 00 f5 ba 3c 95 5e f7 39 c4 18 bd 3c 12 43 95 bc
       0.022821903 0.0004718198 0.023083098 -0.018220458
000080 1f f3 1f bc 73 ea 73 bd 32 ec ac 3c 8e 7e 28 3c
       -0.009762554 -0.05954976 0.02110872 0.010284079
000090 e4 3f ca 3c 4e ca 30 bb 17 d9 de bc fd ae 54 bd
       0.024688669 -0.0026976052 -0.027203126 -0.051924694
0000a0 66 37 13 3d c0 97 86 bd 6c 11 78 bc d6 a9 23 bd
       0.035941504 -0.06571913 -0.015140872 -0.03995689
0000b0 09 fd 44 3d d6 2d 93 ba cc 25 a9 3c 5e 4f 97 3c
       0.048092876 -0.001122887 0.020647906 0.018470462
0000c0 d9 fd 0c bc 73 c4 f0 bb b3 75 34 bd 2d d4 97 bd
       -0.008605444 -0.0073476373 -0.04405756 -0.07413516
0000d0 98 ca 40 3b fa ec b6 bc fb 96 2f bc 38 62 49 3c
       0.002941763 -0.022329796 -0.010717149 0.012291484
0000e0 37 f2 3b bd 77 05 bc 3c 3d 99 1f bd 1c 9c a0 3d
       -0.04588529 0.022951825 -0.0389645 0.078422755
0000f0 d7 70 01 bc 53 e9 58 3d df 66 17 3d ea eb 80 bd
       -0.007900438 0.05295689 0.03696334 -0.06294997
000100 72 0b b0 3c 09 b1 9a 3c 5a 89 02 bd 91 27 c4 bc
       0.021489833 0.018883245 -0.03186927 -0.023944648
000110 ba 00 9c bd 48 17 4b bd 34 98 dc bc 72 f9 83 bd
       -0.07617326 -0.04958275 -0.026928045 -0.06444062
000120 e3 6c ba bb 9e 5e bb 3c 97 82 13 bd c6 b8 1e 3d
       -0.00568925 0.022872265 -0.036013212 0.038750432
000130 f2 b4 81 bd 08 09 8d 3d e3 fa 94 3b 41 8e 22 bd
       -0.06333341 0.06886488 0.0045465096 -0.039686445
000140 b7 f5 03 3d c7 ae 28 bd 6f 3b 0b bd 5f 29 93 bc
       0.032216754 -0.041182306 -0.033992227 -0.017964063
000150 ba c0 98 3d 3c 89 62 3d 34 68 4b 3c 27 28 6d bd
       0.07458635 0.05530666 0.012414981 -0.05789962
000160 62 fd 5e 3c f0 9c 91 bb a0 c7 da 3c 20 bd 32 3c
       0.013610216 -0.0044437572 0.026706517 0.010909349
000170 6c 1c 8b bc c2 a2 4e bc 52 6d 17 3d 9d c3 09 bd
       -0.016981326 -0.012612047 0.03696949 -0.033633817
000180 bc 44 36 bd a7 a0 0b 3d 44 75 9a bd 95 68 86 bd
       -0.044499144 0.034088757 -0.07541898 -0.06562916
000190 c0 e0 21 3c 50 38 ea bc 07 18 eb 3c 4f 1a f8 bc
       0.009880245 -0.028591305 0.02869798 -0.030285982
0001a0 ba ae a4 bc c6 84 1b bd 9f 7f ab 3c 07 13 b1 bc
       -0.020102847 -0.03796842 0.020934878 -0.021615518
0001b0 7a 5d 8b bd f8 6c 6e bd 9b 9b d6 bc ec a3 f8 3c
       -0.068049386 -0.05820939 -0.026197245 0.030351602
0001c0 ea f5 dd bb 3a bd 49 bd 70 b5 43 bd 17 0b c2 bb
       -0.0067737 -0.049252726 -0.047780454 -0.005921732
0001d0 5f 7d 91 bd 88 85 07 bc cf bc 43 3d 23 b7 4f 3d
       -0.07103991 -0.008271582 0.047787484 0.050711762
0001e0 5b 0b 15 bd c8 77 3f 39 d9 9d 18 3d 6a cb 2b bc
       -0.036387783 0.00018259801 0.03725991 -0.010485509
0001f0 8a ad 91 bc fe 5e 26 bd e4 29 80 bd ca 65 c3 3c
       -0.017782945 -0.040617935 -0.0625799 0.023852248
000200 23 69 39 3c 11 e1 af bc ef d8 3a 3b d8 92 1c bd
       0.01131657 -0.021469625 0.002851065 -0.03822598
000210 77 80 04 bd b2 a7 ed 3b 25 53 5a bd 1b 68 78 bd
       -0.032349076 0.007252657 -0.05330195 -0.060646158
000220 07 ae d8 3b 13 d9 e2 bb 7c 2c 7d bd a6 84 de 3c
       0.0066125426 -0.00692285 -0.06181 0.027162861
000230 f6 17 4b bd 17 f1 1a bc 81 18 82 bd b5 8b 2c 3c
       -0.049583398 -0.009456894 -0.0635233 0.010531356
000240 0e db 1b bd eb 0a 7c 3c 9e a0 8d bb 65 22 a0 3c
       -0.038050704 0.015383462 -0.0043221256 0.01954765
000250 4e 09 18 3d ec 09 69 3d 6b 1b 90 bd 28 92 2c 3d
       0.03711825 0.056894228 -0.070364796 0.042131573
000260 60 d1 96 3d d8 5c fb 3c f9 f4 e0 bc 4a b2 bd 3b
       0.07364154 0.03068392 -0.027460562 0.005789076
000270 41 12 18 bd de fe 36 bd f7 ba 09 3b 52 9b cf 3c
       -0.037126783 -0.044676654 0.002101598 0.025342617
000280 c0 20 07 3d f1 5e 04 3d 77 bc c2 3c 17 7f 05 3c
       0.032990217 0.032317106 0.023771508 0.008147976
000290 30 78 02 bc 56 81 43 bd 1b cb 2f bd 27 50 59 bd
       -0.007963225 -0.047730766 -0.042918306 -0.053054955
0002a0 ec 54 08 3c 8b b4 c3 ba e4 7d ec 39 f4 be 1e bc
       0.008321028 -0.0014931125 0.00045107224 -0.009689081
0002b0 43 ee cc bc f0 ca ad 3c 71 03 53 3d 04 83 48 bc
       -0.025015956 0.021214932 0.051516954 -0.012238268
0002c0 f8 d1 95 bd ac a6 4d bd b0 cb a1 3d ab 4f 9c bb
       -0.07315439 -0.05020778 0.079001784 -0.0047702393
0002d0 91 14 bf bb d6 64 98 bd a8 61 70 bd f8 60 57 bc
       -0.005831309 -0.07441108 -0.058686882 -0.013145678
0002e0 1f ec 24 3d 40 b6 26 bd 38 38 f5 bc 3e 62 34 bd
       0.040264245 -0.04070115 -0.029934034 -0.044039004
0002f0 e7 df a1 bb ef 0a 70 3d cf 45 57 3d 9c c9 25 bd
       -0.0049400213 0.058604177 0.05255681 -0.040475473
000300 cc 4c 6f 3d 2b 7e f0 bc 5e c6 4c 3c fd 36 75 bd
       0.05842285 -0.029357037 0.012498466 -0.059866894
000310 89 95 6c 3c 51 70 0d 3b a8 56 1f bd 89 b7 1c bd
       0.014439949 0.0021581838 -0.038901 -0.03826097
000320 44 60 8c 3c f1 ea cb 3c af 73 df 3c a1 85 19 3d
       0.017135747 0.024892302 0.027276842 0.037480954
000330 97 cb 3e 3d af d2 d4 3c 1f 3b b5 bc 90 14 28 bd
       0.046580877 0.025979368 -0.022122918 -0.041035235
000340 c9 a3 e8 bc f5 32 fc bc ee 72 2e bd 11 10 0c 3d
       -0.028398411 -0.030786017 -0.042590074 0.03419501
000350 e3 02 df bc 66 5d 2c bd ed 45 d5 bb e9 6a 31 bd
       -0.027223056 -0.04208126 -0.00650858 -0.043314848
000360 12 63 80 bd 0e 60 83 bc 5c 1e 11 bd 65 df b6 3c
       -0.06268896 -0.016037013 -0.035429344 0.02232332
000370 5d 0f 5a bc c3 8e 70 3b 6b dd 19 bd 74 b4 22 3c
       -0.013309327 0.0036706186 -0.037564676 0.009930719
000380 d9 b9 88 bd 8a b7 ab 3b fc c3 50 bd 9c 53 42 3c
       -0.066760726 0.0052403854 -0.050968155 0.011860754
000390 c2 35 0d 3d d5 94 85 b9 9b b1 c8 3b 23 b8 26 bc
       0.034475096 -0.00025478625 0.006124688 -0.010175738
0003a0 20 46 e9 bc ec fe c1 bb 88 06 04 bd 0a f6 83 bd
       -0.028475821 -0.0059202816 -0.03223279 -0.064434126
0003b0 07 c3 20 bd 17 e7 1e bd ca 4a ed bc 13 4a df 3c
       -0.039248493 -0.038794603 -0.028966326 0.027257001
0003c0 7e 77 a7 bb a1 2d 70 bc 39 23 52 bd 24 7d 22 3d
       -0.00511068 -0.014659316 -0.051303122 0.039670125
0003d0 24 00 41 bd 6f b5 33 bd 5f 1a 63 bd ee 6a 80 bc
       -0.047119275 -0.0438742 -0.05544507 -0.015675988
0003e0 e9 ee a3 3b 7b 3b 49 bd b2 be ea bc 68 e1 84 bd
       0.0050028455 -0.04912899 -0.028655384 -0.06488305
0003f0 30 c2 90 3b 02 f0 95 bd b7 ce 28 3d 63 06 cd bc
       0.00441768 -0.073211685 0.041212764 -0.02502746

conv2.bias f4 [64]
000000 8d 28 43 bd 2b e6 86 bd d9 dd 71 bd 35 b1 33 bd
       -0.047646094 -0.0658687 -0.05904946 -0.04387017
000010 eb 35 cb bc 95 d8 a4 3c f9 d5 6c bd 3a 07 85 bd
       -0.024805984 0.020122806 -0.057821248 -0.06495519
000020 91 bd af bc 8a 81 d6 3c 3b 00 61 bd e9 6b d4 bd
       -0.021452697 0.026184816 -0.05493186 -0.10372145
000030 a3 74 39 3b 6b 0d 11 3d 65 56 cc bd 0a 4a 85 bd
       0.002829828 0.035413187 -0.09977416 -0.065082625
000040 33 bf 0e bd 67 fd 93 bc 8e c9 3f ba c9 a5 3a bd
       -0.03485031 -0.018065168 -0.0007316106 -0.04556826
000050 7c 83 2d 3d ae e7 84 3c d2 cd 23 3d b9 4b f8 bd
       0.04236172 0.016223755 0.039991207 -0.12123818
000060 52 42 a4 3c c1 cc 86 bd cd 08 0a 3d 59 0c 62 3c
       0.020051155 -0.065820225 0.0336998 0.013796889
000070 b9 b7 54 bc 68 fe a5 bc f5 9d 4c bd e1 9d c5 bc
       -0.012983256 -0.020262912 -0.049955327 -0.024123134
000080 3e 77 c3 3c 1d 9c 30 bd 21 b5 78 bd 79 ed 90 bd
       0.02386057 -0.04311763 -0.060719613 -0.07076544
000090 88 78 6f 3b 54 8e cb bc f7 56 b2 bb b7 3c e4 3c
       0.0036540348 -0.02484814 -0.005442496 0.027860982
0000a0 b0 c4 16 bd e0 09 41 bc c6 dc 05 be 80 7c b6 bd
       -0.03680867 -0.01178214 -0.130725 -0.08910465
0000b0 d9 7f 3a bd e6 9a 98 bd 1d 6b 12 bd b0 5f 58 bd
       -0.04553208 -0.074514195 -0.035746682 -0.05282563
0000c0 08 96 9a bd ba 22 2a bd 58 2f e9 bc dd 11 8c 3c
       -0.075481474 -0.041537024 -0.028464958 0.017098362
0000d0 24 58 81 bd fc 57 b7 bd 97 e5 f5 3c 24 87 aa bd
       -0.063156396 -0.089523286 0.030016704 -0.08326557
0000e0 45 f4 35 bd 08 f2 32 bd 95 62 f2 bc 34 dc ff 3c
       -0.044422407 -0.04368785 -0.029588023 0.03123293
0000f0 ec b9 a2 bc 51 f0 27 bd bd 06 bb bd 21 07 2b bc
       -0.019864045 -0.041000668 -0.091321446 -0.010438711

fc1.weight f4 [128, 1600]
000000 a4 84 d1 3b 5f 48 39 3c f0 8f 4a bb 1d 95 c5 bc
       0.006393986 0.0113087585 -0.0030908547 -0.024118954
000010 bb 47 1d 3c 0a 2b 73 bc 55 8c 5b 3c 23 89 65 bc
       0.009599621 -0.014841804 0.013400157 -0.014009747
000020 06 69 6d 3b 54 bb e6 bc a0 8b b5 ba b8 ea a5 3b
       0.003622593 -0.028165497 -0.0013850816 0.005063381
000030 9a 62 32 bc 9a 00 4e bb 10 b5 e9 bc 80 59 cc 3a
       -0.010887766 -0.0031433464 -0.02852872 0.0015590638
000040 0c c0 88 3c d6 6a 34 3c 0f d6 e4 bc 38 28 24 bc
       0.016693138 0.0110118 -0.027934102 -0.0100193545
000050 00 a3 52 b9 d1 c7 aa 3c 3e 20 75 3b 41 d6 85 bc
       -0.00020087883 0.020847233 0.003740325 -0.016337516
000060 16 f7 a5 3b 35 e7 0d 3c 55 d3 5a 3b ef 8a 23 3c
       0.0050648553 0.008661081 0.0033390124 0.009981855
000070 71 e6 3b bc e1 98 a8 ba 76 04 11 3c 53 6c 4e 3c
       -0.011468516 -0.0012862944 0.008851161 0.012599069
000080 fb 08 ae bc 0f 8b d8 bc b9 60 3b bc 2f 82 de bc
       -0.021244517 -0.026433496 -0.011436635 -0.027161686
000090 ff e4 76 bc 5b 8c d4 bc 59 8d 3b 3c 62 60 36 3c
       -0.015069245 -0.025945833 0.011447274 0.011131378
0000a0 57 76 57 bc 1f dc 44 bc a6 39 89 3c 32 4e 90 bc
       -0.013150773 -0.012015372 0.016751122 -0.017615411
0000b0 cb 94 85 bc 76 b1 b4 bc 0b ba 1a bc c2 9c f4 bc
       -0.016306302 -0.022057276 -0.00944377 -0.029859904
0000c0 b1 95 ea bc a3 8a 60 bb 82 e5 f0 bc e8 d3 90 bb
       -0.028635832 -0.0034262321 -0.029406313 -0.0044197924
0000d0 f2 d2 8c 3c e7 1a 24 3b 75 ca 8b bc 7a b6 d5 bc
       0.01719043 0.002504045 -0.017064312 -0.026087988
0000e0 64 3a 88 bc 53 2b 96 3c b3 05 30 bc 24 76 87 bc
       -0.016629405 0.018331205 -0.010743546 -0.016535826
0000f0 2c 50 ee bc 4d 31 84 bc 4a 75 1e 3c 39 eb 47 3c
       -0.029090963 -0.01613679 0.009671519 0.012202078
000100 07 bf 8e 3c 80 78 4c 3b 6d 05 15 3c b0 1c 15 bc
       0.017425073 0.0031199753 0.009095532 -0.009101078
000110 8f 59 f9 bc a3 44 4c bc 3f e8 ff 3b e7 0d 88 bc
       -0.030438213 -0.012467536 0.0078096683 -0.016608192
000120 d2 57 5c bc ac 4c 1e 3c 72 24 9a bb f3 90 e2 bc
       -0.013448672 0.009661835 -0.0047040517 -0.027657008
000130 31 4f 17 3b 23 22 f3 bb b4 46 e5 bb 6d db 02 bc
       0.0023087973 -0.007419841 -0.006996954 -0.0079868855
000140 e8 9a 8a 3c 27 bb 68 3c 49 29 17 bc c5 a2 9a 3b
       0.016919568 0.014204777 -0.009226152 0.0047191107
000150 da 5e 55 bc 9d 2e 6b bc 09 b7 a5 bb 7a 8b 9b bc
       -0.013023103 -0.014354375 -0.00505722 -0.018987406
000160 ae 9a c8 bc 55 55 a8 bb d9 ba 00 3c e2 2f b4 b9
       -0.02448782 -0.0051371255 0.007857048 -0.0003436795
000170 17 3a 54 bb 27 b3 8f 3c ce 62 e1 bc f7 a4 dd bb
       -0.0032383257 0.017541481 -0.027512934 -0.00676405
000180 e5 fb 91 bc 1c d4 b5 bc 85 eb 61 3c bb de 26 bc
       -0.017820308 -0.022195868 0.013789062 -0.010184939
000190 c2 a7 a2 bb bd ae ad 3c 39 94 f2 bb 56 54 3b bc
       -0.004963846 0.021201486 -0.0074029234 -0.0114336815
0001a0 79 ad 40 3c e1 63 fa bc fe 76 8b 3c c2 71 7c 3c
       0.011760109 -0.030565204 0.017024513 0.015407981
0001b0 49 c4 8c 3c 0d f2 72 bb 20 0c 04 bc e0 f6 3e 3c
       0.01718344 -0.0037070543 -0.008059531 0.011655539
0001c0 6b 92 72 3c 1b 2b 4c bc 43 6a 2d 3c b5 de 84 3b
       0.014805417 -0.012461449 0.010584417 0.004054869
0001d0 c2 56 82 3c 79 13 3d bc c3 9a 7c bc 05 a7 fa 3b
       0.01591051 -0.011540287 -0.015417757 0.007649305
0001e0 60 c5 73 3a d4 e2 0c bc c2 cc c4 bc bf 86 e3 bb
       0.00092991255 -0.008599002 -0.024023417 -0.006943553
0001f0 ba 69 2a 3c 7f 78 86 bc 68 e8 1e 3c 9b b3 8b bc
       0.010401184 -0.016414879 0.009698965 -0.017053416
000200 87 fd 2c bc 53 f0 df 3b 8f 57 4f bc e2 5d ab bb
       -0.0105584925 0.006834069 -0.012655153 -0.0052296976
000210 51 14 f4 38 b2 f9 df bc 33 11 39 3c da 8f 96 3c
       0.00011638611 -0.027340744 0.0112956045 0.01837914
000220 3e 70 b8 bc 48 97 33 3c b1 83 f8 bc 6d 10 4c bc
       -0.022514459 0.010961361 -0.030336233 -0.012455088
000230 2f ff d3 3b be 60 67 3c ea 03 d7 ba 4c c1 63 bc
       0.0064696292 0.014122186 -0.0016404365 -0.013901066
000240 c4 d7 54 3c 6b b0 37 bc 04 f9 f0 bb b4 b7 8a bb
       0.012990896 -0.011211495 -0.0073539037 -0.004233325
000250 1b fa 47 bc c5 7d 44 bc b9 6e b8 3c 73 29 8f bc
       -0.012205626 -0.011992876 0.022513734 -0.01747582
000260 a0 9c fc ba 38 ee b0 3b 40 a6 23 ba d0 2b 21 bc
       -0.0019272752 0.0053994916 -0.000624273 -0.009837106
000270 c0 1a ae 39 37 6e 15 3c fe 16 73 3c 4f 2d ca bc
       0.00033207797 0.009120516 0.014837025 -0.024679808
000280 54 10 07 bc df c0 82 bc c3 b6 c5 3c 60 ad d1 3a
       -0.008243639 -0.015961109 0.024135 0.0015997104
000290 89 a7 b4 3c 47 9a 6d bc c0 73 72 3b c0 b2 db 39
       0.022052543 -0.014502115 0.0036995262 0.00041904114
0002a0 ee 23 8d bc 93 86 6e 3c 39 ba 97 3c d0 96 45 bc
       -0.017229047 0.014558452 0.018521415 -0.012059882
0002b0 f2 77 b8 bc 4f 18 0e 3c 33 7c 66 bc 77 d9 30 3b
       -0.022518132 0.008672788 -0.014067697 0.0026985088
0002c0 7a af 98 3c 16 fd 1c ba ec 9f 05 bc 1e 95 93 3a
       0.018638361 -0.00059886405 -0.008155804 0.001125965
0002d0 35 29 3e 3c 5d ab 82 3b 4a b8 16 3c cd ec 7c bc
       0.011606504 0.0039877133 0.009199211 -0.015437317
0002e0 d1 9f ec bc c7 0e e0 bc 65 34 91 bc ff 1f 09 bc
       -0.0288848 -0.027350796 -0.017725179 -0.008369445
0002f0 77 66 8e bc b2 06 bf 3b d2 39 e4 3b c5 24 75 bb
       -0.017382843 0.0058296556 0.0069649005 -0.003740595
000300 6f a7 f3 bc 43 87 4a bc fa e9 82 bc 90 11 71 bc
       -0.029742924 -0.0123613505 -0.01598071 -0.01471366
000310 57 9b 1e bc 8c 3a 25 bc b2 b7 da bc 5c 6d 8d bc
       -0.009680591 -0.010084759 -0.02669892 -0.01726406
000320 69 5a fa bc 76 0d 8b 3b c4 dd b2 bc 0d 99 d6 3b
       -0.030560689 0.004243548 -0.021834262 0.006549007
000330 6f b7 18 bc c9 d8 8f 3b 4c 0c 5d bc dc 2b 90 3c
       -0.009321078 0.0043898565 -0.013491701 0.017599039
000340 41 73 20 bc df af aa bc dd ba 38 3c 71 08 2e 3c
       -0.009793104 -0.020835815 0.01127502 0.01062213
000350 34 bc be 3b cf e3 26 ba 49 95 9a 3c bf ef 82 bb
       0.0058207754 -0.00063663436 0.018870013 -0.003995865
000360 c1 3b 4f 3c 10 e1 99 3c 47 a9 ca bc d9 7a 37 bc
       0.012648524 0.018784076 -0.02473892 -0.011198723
000370 ec 6e 24 bc 9f e1 d0 bc 8b 1b a5 bb d6 58 90 bc
       -0.010036211 -0.02549821 -0.005038684 -0.017620485
000380 d5 4b 25 3c 0d 25 66 3c c8 c8 f6 bc d0 a1 80 3c
       0.010088881 0.0140469195 -0.030125037 0.015702158
000390 c4 94 98 3c f2 fa 42 3c a7 8e f1 bc 03 b9 04 ba
       0.018625624 0.01190065 -0.029486967 -0.0005062969
0003a0 4f 74 f4 3b a2 63 bd bc d8 24 67 bc 30 a9 cd bc
       0.007460154 -0.023118798 -0.014107905 -0.025105089
0003b0 0d c3 24 bb 81 2a 82 3b 1b 86 af 3b 02 91 b0 ba
       -0.0025140673 0.003972352 0.005356563 -0.001347095
0003c0 bb 9e e6 bc 9b 07 34 bc f9 4c fa bb 26 f1 3d 3b
       -0.02815186 -0.010988141 -0.0076385704 0.0028982847
0003d0 33 09 0f 3c 94 16 8d bc 9a 2b e9 bc 17 f7 b8 bc
       0.008730221 -0.01722268 -0.028463174 -0.02257876
0003e0 17 56 b3 bc 48 02 23 bc 9b 02 53 3c 7b 31 d1 bc
       -0.021891637 -0.009949274 0.012879039 -0.02553629
0003f0 09 c0 39 bc ed 94 3b 3c 9e 47 c8 bc 4d cc 80 3c
       -0.011337289 0.011449081 -0.024448212 0.015722418

fc1.bias f4 [128]
000000 05 a4 1b bc 60 0a 25 3c 83 04 d1 bc 8a 88 d9 3c
       -0.0094995545 0.010073274 -0.025514847 0.026554365
000010 4f 4f 46 3c 02 af 20 bc 94 e9 87 bc dd e2 10 bc
       0.01210387 -0.00980735 -0.01659087 -0.008843151
000020 0f 8c 18 3d d3 07 8f bc 8c 66 29 bd 2b ee 43 bd
       0.037242945 -0.017459786 -0.041357562 -0.047834557
000030 35 ca 94 bc 6c 35 55 bc 0f 93 5d 3c 70 28 ef bb
       -0.018162826 -0.013013225 0.013523831 -0.0072985217
000040 87 2c 21 3c 1e 33 c2 bc 3b a4 bc 3a 65 9a dc bc
       0.009837276 -0.023706015 0.0014392206 -0.02692909
000050 ec 6a 3e 3c 79 0d a4 3c 75 28 9e bc 7e 0b 9f bc
       0.011622172 0.020025956 -0.0193064 -0.01941466
000060 c8 d5 86 bc 78 45 a3 bc 9d b6 54 3c f0 6a 44 bd
       -0.01645936 -0.019930586 0.0129829915 -0.047953546
000070 03 00 43 bb 8e 55 70 bb a7 ce 23 bc c7 25 25 bc
       -0.0029754646 -0.0036672088 -0.009998 -0.010079808
000080 3d d1 c3 bc 65 e9 9e 3b bd f6 5a ba ac dc 5a 3d
       -0.023903484 0.0048496 -0.0008352807 0.053433105
000090 b3 e8 ad bc 3e 85 d5 bb 1a b1 2c 3d b7 84 34 3b
       -0.021229124 -0.006516128 0.042161085 0.0027544925
0000a0 bd 95 0b 3d 23 cf 3b bd bf 54 b0 3c 2e 3b e9 bc
       0.03407835 -0.045851838 0.021524785 -0.028470602
0000b0 fc 5f 64 bb d7 bb 8d ba 29 a4 5b bb 75 f7 80 3a
       -0.003484725 -0.0010813427 -0.0033514595 0.0009839373
0000c0 5e a8 b3 3c 2a 27 8b bc ab 30 02 3d ff 7d b2 3c
       0.02193087 -0.016986448 0.031784695 0.021788595
0000d0 47 ef 36 3d d0 91 65 bc 1c a9 91 bc b3 38 69 3c
       0.044661786 -0.014011815 -0.017780833 0.01423471
0000e0 c6 d6 90 bb fe 15 ee bb 39 ad 92 bc e2 85 98 ba
       -0.0044201342 -0.0072658053 -0.017904865 -0.001163658
0000f0 81 6d 2a bb 2c 01 12 ba 21 ca 0a bd 51 ac eb b9
       -0.002600521 -0.00055696326 -0.03388417 -0.0004495108
000100 8d a2 0e bb b5 ab 67 bc b4 c7 35 3c 06 4e 3b 3d
       -0.0021764368 -0.014140059 0.011094976 0.045728706
000110 8f 0e ef bc 4e 57 29 3d fe 56 61 3d b8 cf 3d 3d
       -0.029181747 0.041343026 0.055014603 0.046340674
000120 e4 76 28 3d 65 e6 68 bc a8 ec db bc 11 06 21 3d
       0.041129008 -0.014215087 -0.026846245 0.039312426
000130 13 10 02 bd d3 be 13 bc f5 7f a3 bc 52 a6 1a bc
       -0.03175361 -0.009017664 -0.019958476 -0.009439068
000140 92 85 b0 bc ea 5e b8 bc 43 38 09 bd 0c 66 9e 3c
       -0.021548066 -0.022506196 -0.03350092 0.01933577
000150 72 14 b9 3c 6c 8f b4 bc 61 b9 70 3c e9 94 21 3d
       0.022592757 -0.022041045 0.014692635 0.039448652
000160 34 a8 80 3c 59 5a df 3b 2e 33 e1 3c 28 6a 2d bc
       0.015705206 0.00681619 0.027490225 -0.010584392
000170 17 44 27 3d 25 92 35 3c 3e b8 91 bc b8 59 b4 bc
       0.04083642 0.011082207 -0.017788049 -0.022015437
000180 ef 4e ef bb d9 df ae bc 8e 0a fa bc 4e f7 1d bd
       -0.007303111 -0.021346973 -0.030522611 -0.038565926
000190 e5 43 99 bc 8c 15 86 bd 06 3a 28 3d 25 4d 10 bd
       -0.018709132 -0.065470785 0.04107096 -0.03522982
0001a0 af 1e d1 bc e2 70 23 bc 87 e6 42 bc eb d4 20 bc
       -0.025527326 -0.009975644 -0.011895782 -0.009816389
0001b0 b9 7e 70 3b 15 ad c8 3c 63 a2 b1 bc 65 aa 8d 3c
       0.0036696626 0.024496594 -0.021683877 0.017293165
0001c0 ad 4d 2c bc c1 c6 60 bb f0 b3 45 bc 80 2e 1d 3d
       -0.010516566 -0.0034298154 -0.012066826 0.038374424
0001d0 b2 7e 95 bc e2 a6 6d 3d 99 c0 43 3d 41 4e 1c 3d
       -0.01824889 0.05802048 0.047791097 0.038160566
0001e0 eb 1c 70 bc 48 78 87 bb 10 91 c1 3a 90 14 9b bc
       -0.014655332 -0.0041342117 0.0014767963 -0.018930703
0001f0 1b 8e 07 3d 2e 32 71 bb b2 06 a7 3d f7 d6 eb 3b
       0.033094507 -0.003680359 0.08155574 0.0071972567

fc2.weight f4 [10, 128]
000000 f5 6a 06 bd 5f 80 bb 3c a4 9e 1a be e6 bc d6 3d
       -0.032816846 0.02288836 -0.15099579 0.10485248
000010 cb b2 f6 3d 9f 04 d1 bd 51 83 37 3c e4 a1 f0 bc
       0.12045821 -0.102059595 0.011200742 -0.02937407
000020 8c b0 1a 3d d4 cb 19 3d 45 7e ee 3a fc 0a f6 bc
       0.037766024 0.0375479 0.001819559 -0.030034535
000030 68 5f f3 bd bb c9 dc ba 16 06 6a 3b fe b4 04 be
       -0.11883432 -0.0016844788 0.0035709194 -0.12959668
000040 d9 08 f4 3c 53 15 11 3b 52 d6 2e 3c 3d fd ca bd
       0.029789375 0.0022137954 0.010671215 -0.099115826
000050 19 ac ec bd 92 da b9 3c 9c 22 b0 bd e0 27 81 3d
       -0.115562625 0.02268723 -0.08600351 0.06306434
000060 1c 8d e8 bc 64 0c 40 3d 1d 66 91 3c d8 ac a8 bd
       -0.028387599 0.046886817 0.017748887 -0.08236092
000070 b7 3b 7e 3d b3 f0 ba bc 30 da 48 be c6 7b 1d bd
       0.062068667 -0.022819852 -0.19614482 -0.038448118
000080 83 c0 bf 3d 5c fd a1 bd 77 f9 04 3d 9f ee 3d 3d
       0.093628906 -0.079096526 0.03246447 0.046370145
000090 06 b4 60 3d 08 d5 53 3c 83 8a 2a 3d 93 8f 8d bd
       0.054859184 0.012929209 0.041636 -0.0691215
0000a0 6f 73 56 be f7 d3 8c be ba f4 de bd dd 16 59 3d
       -0.20942472 -0.27505466 -0.10886522 0.05300032
0000b0 12 14 ac bb 82 55 45 bc 02 97 79 be f8 47 d1 3d
       -0.005251416 -0.012044312 -0.24374011 0.10218805
0000c0 81 b0 05 be 40 5b 48 bd 9f 7e 6b 3d 80 b2 42 bc
       -0.13055612 -0.048915148 0.057493802 -0.011883378
0000d0 cf 57 c3 3d 3a 66 7d be 6a 4d 4d 3d 82 d7 e2 bd
       0.095382325 -0.24746028 0.050122656 -0.11076261
0000e0 c9 a1 7e bd 9e 3d 20 3d 4f 72 a5 3c 57 d7 48 3d
       -0.06216601 0.039121263 0.020196108 0.04903349
0000f0 1b 6c 7b 3d 14 1b 8c 3d b6 17 bd bc 93 b4 f1 3c
       0.061382394 0.06841102 -0.023082595 0.02950505
000100 cd 2c 1e 3e d7 4e 8e bc 73 a5 c3 3d 4b 41 db bd
       0.15446778 -0.017371578 0.09553041 -0.10705813
000110 a5 12 27 bd ee 86 ed bd f1 52 2a 3e 79 bf 05 bd
       -0.040789265 -0.115980014 0.16633202 -0.032653306
000120 49 67 a0 3d df da ff 3b a5 d0 25 bd b0 c7 4a be
       0.078322 0.007808074 -0.040482182 -0.19802737
000130 d2 cc 66 3d 50 5c a9 3d c2 d0 11 3e 85 1a 0e 3c
       0.056347676 0.0826956 0.14239791 0.008673315
000140 71 6c 71 3d 57 68 dc 3c 16 59 a1 bd 2e 84 3e 3c
       0.05894131 0.026905222 -0.0787832 0.011628194
000150 de c3 f3 bd fe 78 62 3c 16 c3 47 bc 8f 32 0a 3e
       -0.11902593 0.013822792 -0.012192508 0.13495849
000160 8a 16 fa 3d be 79 47 be bd 03 32 be a0 73 16 bd
       0.1221133 -0.19480035 -0.17384239 -0.036731362
000170 19 36 5b 3d 37 65 47 bb 9e 42 7a 3d 44 38 e4 3c
       0.05351839 -0.003042532 0.061098687 0.02785886
000180 97 52 31 3d 74 46 03 bd 32 98 5d bd fc aa 82 bd
       0.043291654 -0.03204961 -0.054100223 -0.06380269
000190 77 4d 94 3d 1a ba 21 be 98 a2 22 bc 76 26 65 3d
       0.07241338 -0.15793648 -0.009926461 0.055944882
0001a0 ba e1 e0 bd 2b 8b ee bd 27 7e 35 bd be c6 1e be
       -0.10980554 -0.11647638 -0.04430976 -0.15505502
0001b0 33 02 6a bd 52 c2 ae 3d 48 98 82 be ca 91 0d 3d
       -0.057131004 0.085331574 -0.25506806 0.034562863
0001c0 d8 f6 2c 3c 0a b3 9b 3d 3c 0a 40 be 4b ca 33 3c
       0.010556899 0.07602508 -0.18753904 0.010973523
0001d0 51 a3 51 3d ad 0c d8 3d f1 11 ae bd 74 c6 04 3d
       0.05118114 0.10549293 -0.08499516 0.032415822
0001e0 b7 da 21 bd a7 6d 7d 3d 93 f3 ca bd 70 8e ff 3d
       -0.039515223 0.06187215 -0.09909739 0.1247834
0001f0 2c 81 54 3d 5f a4 23 3e 7d 2f 20 3e f7 50 95 3d
       0.051881 0.15980671 0.15643115 0.072908334
000200 b3 03 11 3d 03 c7 9a 3d ac 22 ba bd fa 22 c7 3d
       0.03540392 0.0755749 -0.090886444 0.09723468
000210 62 ec 15 be bf 70 24 be df da 70 bc 73 79 65 bd
       -0.14640954 -0.16058634 -0.01470062 -0.056024026
000220 67 c0 cd 3d 1e cd 5d bd e8 fb 0d be f9 07 55 bd
       0.100464635 -0.054150693 -0.13865626 -0.052009556
000230 55 60 82 39 fa 66 04 3d 39 df 5a 3d 70 9f 16 3e
       0.00024867305 0.03232477 0.053435538 0.14709258
000240 20 cc 2f bd 2d f1 8c 3c 13 88 cb 3d 4a 49 22 bd
       -0.04291928 0.017204845 0.099380635 -0.039620675
000250 97 f2 fe 3d 1e 71 8d bd cc d6 9f bd 0c 12 54 be
       0.12448614 -0.06906341 -0.07804641 -0.2071001
000260 55 6c cb bd fe fb 64 bd 88 23 89 bd c7 77 04 be
       -0.09932772 -0.05590438 -0.0669623 -0.12936316
000270 71 54 69 bd e9 7f 58 bc 78 fc 13 be 2c 96 9d 3d
       -0.056965295 -0.01321409 -0.14451778 0.07694659
000280 45 f4 3e bd 36 61 44 3d 12 5e 88 bd 52 10 48 3d
       -0.046619672 0.04794427 -0.066585675 0.04884369
000290 77 22 3b bd 89 76 ac b9 90 27 15 3d ca d3 8e bd
       -0.045687165 -0.00032894712 0.036414683 -0.06973989
0002a0 5d 77 82 3d d8 05 94 bc 45 28 16 be 6d 4e 90 bd
       0.06370423 -0.018069193 -0.14663799 -0.070462085
0002b0 e8 54 19 3d 1a b3 14 3e 85 16 e6 3c af b8 f0 bc
       0.03743449 0.14521447 0.02808691 -0.029384939
0002c0 0c 4c 0c 3e 0c e8 0d bd d9 5b 3f 3d 78 15 37 3d
       0.13700885 -0.034645125 0.046718452 0.04469821
0002d0 aa e0 5b bd 1e 65 64 bc 19 fd fa bd c4 c3 67 3d
       -0.053681053 -0.013940124 -0.12255306 0.05658318
0002e0 4e e4 17 bc b2 25 90 3c 53 4a 04 bd 51 59 ba 3d
       -0.009270741 0.0175961 -0.032297444 0.09099067
0002f0 cb dd 48 3c 05 99 00 bc e1 64 63 bd c5 21 49 3d
       0.012259911 -0.007848983 -0.055516127 0.04910447
000300 c1 30 07 be ef 92 80 3d 02 fb 97 3d d5 3f 5d 3d
       -0.13202192 0.06278025 0.07420923 0.054015953
000310 97 17 11 bc 8e 9c 02 3e c0 78 16 3e 9e 4f 03 3e
       -0.008855722 0.12755033 0.146945 0.1282334
000320 b6 b9 6a 3d 10 4f 78 bd d3 2b 47 3d 49 8b f3 3d
       0.057306014 -0.060622275 0.04862578 0.11891801
000330 cd 95 c3 bc d0 b4 70 be ff 4c bb 3c 2c 88 26 3d
       -0.023875142 -0.23506474 0.022863863 0.040657207
000340 36 55 80 3d 6c 63 aa bd 74 5c 57 be c9 b9 27 be
       0.06266253 -0.083197445 -0.21031362 -0.16379465
000350 33 50 15 3e 68 34 01 be 5f 6d e7 bd f1 b9 72 3c
       0.14581375 -0.12617648 -0.11300158 0.01481484
000360 df c7 3f 3e ca 2d d0 3c cb f7 76 3d c8 07 f2 3d
       0.18728589 0.025412459 0.060294908 0.118178904
000370 61 ad 80 3d ef 38 86 3a 13 d1 25 be 36 5e 94 3d
       0.062830694 0.0010240356 -0.16193037 0.07244532
000380 67 e6 f1 3c a3 94 5b bd 38 d7 b8 ba 59 4b 1d bd
       0.02952881 -0.053608548 -0.0014102226 -0.038401935
000390 56 e4 c1 bd 5e 39 1b be 7a f0 ef 3d ec c7 c3 bd
       -0.0946738 -0.15158603 0.11715789 -0.095596164
0003a0 ac 9a 07 be a5 17 b3 bd 54 32 45 3c 48 68 85 3d
       -0.13242596 -0.08744744 0.012035925 0.06514031
0003b0 c8 8a 8f 3d aa 12 d6 bd 22 26 32 bc 9b 7d 2b be
       0.07008892 -0.10452779 -0.010873349 -0.16747133
0003c0 19 38 88 3d 6d b5 8e 3d 7f 4d ae 3d 72 70 9b bd
       0.06651325 0.06968198 0.08510875 -0.075898066
0003d0 95 fd 69 3d 2e 3f 2c be b9 56 ac 3d fe 7a f8 bc
       0.0571266 -0.16820976 0.084149785 -0.030332085
0003e0 d9 79 55 bc eb 83 75 bd f7 0f 5e 3a 20 70 f6 3d
       -0.013029539 -0.05994026 0.0008471007 0.12033105
0003f0 9f ff d4 bc 93 08 01 be 6c c4 84 3d 4d d4 55 3d
       -0.026000796 -0.12600927 0.06482777 0.05220442

fc2.bias f4 [10]
000000 54 89 8b bd bb f9 f1 bc 62 48 b4 3d 15 91 5c 3d
       -0.06813303 -0.029538026 0.088028684 0.0538493
000010 5e 15 96 bc 7a a4 f5 3c 4e c0 ef 3c 36 72 9d 3d
       -0.018320736 0.029985655 0.029266503 0.076878
000020 8c a0 27 bd b6 66 39 bc
       -0.040924594 -0.011315992
